chatbot-deployment/data.pth (torch, 14698 bytes, 6 tensors)

l1.weight f4 [8, 231]
0	0x3d1afe5b	0.03784023
1	0x3d922cdb	0.07137462
2	0xbeb5351d	-0.35392085
3	0x3ec4ff4e	0.38476032
4	0x3fbeb454	1.4898782
5	0x3fc258d2	1.5183356
6	0x3dd187f4	0.10231009
7	0xbc852a9c	-0.01625567
8	0x3fa39a83	1.2781528
9	0x3f2e1960	0.6800747
10	0xbf1d5b49	-0.61467415
11	0x3f146494	0.5796597
12	0x3ec5d63e	0.38640016
13	0xbe31ecf0	-0.1737554
14	0xbd69ca3a	-0.057077624
15	0xbf2900ca	-0.6601683
16	0x403ca23f	2.9474027
17	0x3ea4b381	0.321682
18	0x3e7dc8be	0.24783608
19	0xbfacb077	-1.3491353
20	0xbfabcc4d	-1.3421723
21	0xbf04d6d5	-0.5189031
22	0xbeeb735f	-0.4598646
23	0xbe9c4008	-0.30517602
24	0x3f29cc4b	0.6632735
25	0xbf57eca2	-0.8434545
26	0xbff09449	-1.8795253
27	0xbc9bd2d8	-0.019021437
28	0xbdc4d348	-0.09610611
29	0x3e8152d1	0.25258496
30	0x3ec235c1	0.37931636
31	0xbf2514b2	-0.64484704
32	0xbf0ee3cf	-0.5581636
33	0x3e8fb1d8	0.28065372
34	0x3ed585f4	0.4170376
35	0xbd2ffa70	-0.042963445
36	0x3e6919f9	0.22763814
37	0xbf16ea04	-0.5895083
38	0xbe0d7e6e	-0.1381776
39	0xbe38dd25	-0.1805311
40	0x3fe68878	1.8010397
41	0x3eff5a02	0.49873358
42	0x3f53e954	0.82777905
43	0xbf5e2fbc	-0.86791587
44	0xbf079657	-0.52963775
45	0xbebe4ade	-0.37166494
46	0x3f8f1ec6	1.1181266
47	0xbe4d358c	-0.20039958
48	0xbe344dae	-0.17607757
49	0x3f008045	0.50195724
50	0xbdb374b3	-0.08762493
51	0xbe152792	-0.14565876
52	0xbe862fa9	-0.26208237
53	0xbf344a43	-0.70425814
54	0x3ebd4214	0.36964476
55	0xbe4e6f1b	-0.20159571
56	0xbf48b9b7	-0.7840838
57	0xbf88a41b	-1.0675081
58	0x3f06f59a	0.5271851
59	0xbe35d4e5	-0.17756994
60	0x4026ca26	2.6060882
61	0x3e1e7818	0.154755
62	0xbc982321	-0.018571438
63	0x3f6685ac	0.9004772
64	0xbec9bdee	-0.39402717
65	0x3ca21be7	0.019788695
66	0x3f2920f8	0.6606593
67	0x3e894ce1	0.26816466
68	0xbf81b56d	-1.0133492
69	0xbeb47157	-0.3524272
70	0x3f9cce52	1.2250464
71	0xbed5a298	-0.41725612
72	0xbd313751	-0.043265644
73	0xbf047f15	-0.5175641
74	0x3eb29344	0.3487798
75	0x3f16b6a8	0.5887246
76	0xbd6d2afe	-0.05790233
77	0xbe7ed324	-0.24885231
78	0xbf0fdb52	-0.5619403
79	0x3d8277fa	0.0637054
80	0x3f0d6684	0.5523455
81	0x3ec10793	0.3770109
82	0x3e262583	0.16225247
83	0x4007a44a	2.1194024
84	0xbf912eb5	-1.1342379
85	0x3bc04472	0.0058675343
86	0xbeec2461	-0.46121505
87	0x3ec8d4a8	0.39224744
88	0x3f177417	0.59161514
89	0xbf7b4bf2	-0.9816276
90	0x3ea0ee86	0.3143198
91	0x3ecf22f8	0.40456367
92	0xbe30b7ad	-0.17257567
93	0x3e44406a	0.19165197
94	0x3f01f3cc	0.5076263
95	0x3c8e6929	0.017384129
96	0xbdda7619	-0.106670566
97	0xbf025a8b	-0.5091941
98	0x3f86f1f5	1.054259
99	0xbf027168	-0.50954294
100	0xbf03d99f	-0.5150394
101	0xbeb9de62	-0.36302477
102	0xbac96e8a	-0.0015368026
103	0xbc93ed01	-0.018057348
104	0x3ef721fd	0.48268119
105	0x3e359cb8	0.17735565
106	0x3e9bc7da	0.30425912
107	0xbe86fb5a	-0.2636364
108	0xbf9a3b9a	-1.2049439
109	0xbc07be68	-0.0082851425
110	0x3f8f403b	1.1191477
111	0x40138452	2.3049512
112	0x3ec36197	0.38160393
113	0x3f066744	0.5250132
114	0xbdf50ace	-0.119649515
115	0xbc0bfb6f	-0.008543833
116	0x3fc69462	1.5514033
117	0xbc9ebb76	-0.019376498
118	0xbec8a36a	-0.39187175
119	0xbe9eaa60	-0.3098936
120	0x3e061647	0.13094436
121	0x3f8d82f5	1.105559
122	0xbd001ad5	-0.03127559
123	0x3f7608b6	0.9610704
124	0x400a1f19	2.158148
125	0xbdb701bb	-0.08935877
126	0x3eaf4632	0.34233242
127	0x3eea54bb	0.4576777
128	0xbf8e9998	-1.1140623
129	0xbd6dee47	-0.058088567
130	0xbe3eac82	-0.18620494
131	0x3e7f3cae	0.24925491
132	0xbe01a187	-0.12659274
133	0x3f78f40c	0.97247386
134	0xbe9ab8f8	-0.30219245
135	0xbd4f8526	-0.05066409
136	0x3f72262c	0.94589496
137	0xbefaa292	-0.48952156
138	0xbeee3555	-0.46525064
139	0xbd31e56f	-0.043431696
140	0xbf13b884	-0.57703424
141	0xbd0a5ecd	-0.033781815
142	0x3f286243	0.65774935
143	0x3df67cfd	0.120355584
144	0x3c968374	0.018373229
145	0x3e1a19f9	0.1504897
146	0x400de761	2.2172472
147	0x3e4899a4	0.19589859
148	0xbf1e710e	-0.6189126
149	0xbebd854f	-0.3701577
150	0xbf26d927	-0.651751
151	0xbf138fba	-0.57641184
152	0x3e429e8e	0.19005796
153	0xbffbfcf3	-1.9686569
154	0xbf67e1a0	-0.9057865
155	0x3f6f18a6	0.93396986
156	0xbf3bd0f6	-0.73365724
157	0xbecb2891	-0.39679387
158	0xbf1702ff	-0.58988947
159	0xbf345d7c	-0.70455146
160	0x3e2c9975	0.16855414
161	0x3e9bc225	0.30421558
162	0xbe65c26c	-0.22437447
163	0xbe05becc	-0.13061064
164	0xbdcd8b7f	-0.100363724
165	0x3d48b877	0.049004044
166	0x3f5023e1	0.81304747
167	0x3eda9c32	0.42697293
168	0xbe77cd58	-0.24199426
169	0xbf8bbf34	-1.0917726
170	0x3f2a80f4	0.66603017
171	0x3dae6d8a	0.08516987
172	0xbf83b779	-1.0290366
173	0x3f570b8c	0.84001994
174	0x3ebf3d06	0.37351245
175	0x3ed7c638	0.42143416
176	0xbfff70a4	-1.995625
177	0xbe9d9bf9	-0.3078306
178	0x3ec33c3a	0.38131887
179	0x3f3a136e	0.726859
180	0xbdfaba27	-0.12242537
181	0xc06ff173	-3.749112
182	0x3da4863f	0.08033418
183	0xbe421c36	-0.18956074
184	0x3ec12fd7	0.3773181
185	0xbf0cfc5d	-0.55072576
186	0xbedf4329	-0.43605927
187	0xbf86ab57	-1.0521039
188	0x3fab3bc1	1.337761
189	0x3eeb6f4c	0.4598335
190	0x3eee09b7	0.46491787
191	0x3f488fbd	0.7834433
192	0xbeb16e43	-0.34654436
193	0x3dbd9d6d	0.09258542
194	0xbf530f1f	-0.8244495
195	0xbf8d09a4	-1.1018567
196	0x3f2ad9e7	0.6673874
197	0xbeae427f	-0.34035107
198	0x3f1ecf43	0.62035006
199	0x3fe7333c	1.806251
200	0xbf83b436	-1.0289371
201	0xbf32dfce	-0.6987275
202	0xbef35de4	-0.4753257
203	0xbd28ac1e	-0.04117977
204	0x3fc50e97	1.5395077
205	0x3e233083	0.15936475
206	0x400d4057	2.207052
207	0xbf9727cf	-1.1809024
208	0x3da85273	0.08218851
209	0x3f133b22	0.57512105
210	0xbf32688d	-0.6969078
211	0x3f869fd2	1.0517523
212	0xbd0a62fe	-0.033785813
213	0x3ec5efdc	0.3865956
214	0x3f8dec92	1.108782
215	0x3f80e847	1.0070885
216	0x3eaf1739	0.34197405
217	0xbd1cc13d	-0.038270224
218	0xbe56b1a7	-0.20966206
219	0x3fff4af1	1.9944745
220	0xbe43c1b9	-0.19116868
221	0xbde50ff5	-0.11184684
222	0xbf1d4b0d	-0.61442643
223	0xbfa550f4	-1.291533
224	0x3fdc2963	1.720013
225	0x3ec0dc75	0.37668195
226	0x3db17c4a	0.086662844
227	0x3e6577f0	0.22409034
228	0x3f07ff46	0.5312389
229	0xbd49d1e6	-0.04927244
230	0x3eea592f	0.45771167
231	0xbd31a874	-0.04337354
232	0xbc868049	-0.016418593
233	0x3f226205	0.63430816
234	0x3e85530f	0.2603993
235	0xbf08c80d	-0.53430253
236	0xbf15a3d7	-0.58453125
237	0x3caa6412	0.02079967
238	0xbeda4012	-0.42627007
239	0x3edb4984	0.42829525
240	0xbe926ace	-0.2859711
241	0xbd1b5db3	-0.037931155
242	0x3d3e9a2b	0.046533745
243	0xbe388b15	-0.18021806
244	0x3f1e8e73	0.6193611
245	0x3e876f77	0.26452228
246	0x3f57f18e	0.8435296
247	0x3f975b1b	1.1824678
248	0x3d1d070d	0.038336802
249	0x402d87ce	2.7114139
250	0x3fc344a8	1.5255327
251	0x3eae215a	0.3400982
252	0x3fe719c9	1.8054744
253	0xbf01fe31	-0.5077849
254	0x3fa577fd	1.2927243
255	0x3fc4ee39	1.53852

l1.bias f4 [8]
0	0x3f389d26	0.7211479
1	0x3f20404d	0.62598115
2	0x3f565bd0	0.83733845
3	0x3f15fae6	0.58585966
4	0x3f3c269f	0.7349643
5	0x3f7c483a	0.9854771
6	0x3f338c3f	0.70135874
7	0x3f1caa36	0.6119722

l2.weight f4 [8, 8]
0	0x400b08fb	2.1724231
1	0x3ff23592	1.8922598
2	0xbf327733	-0.69713134
3	0x3f7a18c9	0.9769407
4	0x3ca8651f	0.02055603
5	0x3ce50fcc	0.027961634
6	0x3f551062	0.83228123
7	0xbeae76cf	-0.3407502
8	0xbf44b0ba	-0.76832163
9	0xbf7cbc6f	-0.98725027
10	0x3fc81e19	1.5634185
11	0xbfe917e6	-1.8210418
12	0xbcc74890	-0.024326593
13	0x3fb38752	1.4025671
14	0x3eb54082	0.35400778
15	0x3fb346c0	1.4005966
16	0xbfdca2ae	-1.7237146
17	0x3fdb2812	1.7121603
18	0x3e15e041	0.14636327
19	0x3f57fe62	0.8437253
20	0x3fc42796	1.5324581
21	0x3f29b1bd	0.6628683
22	0xbf60426c	-0.8760135
23	0x3eb9d06f	0.36291835
24	0x3fa1358b	1.2594465
25	0x3fcdd873	1.608168
26	0x3f871be5	1.0555388
27	0x3eac315b	0.33631405
28	0xbee68d6f	-0.4502978
29	0xbf6a0314	-0.91410947
30	0xbf5f3e7c	-0.8720472
31	0x3f2dac58	0.678411
32	0x3e4332bf	0.19062327
33	0xbf124a36	-0.57144487
34	0xbef69106	-0.4815752
35	0x3fdc9adc	1.7234759
36	0x3fde3ca8	1.7362261
37	0x40071406	2.1105971
38	0x3e7e6cf7	0.24846254
39	0xbf8651cc	-1.0493712
40	0xbfc1568f	-1.510454
41	0x3feaef63	1.8354305
42	0x4004a554	2.0725908
43	0xbef37342	-0.47548872
44	0xbf2790ff	-0.6545562
45	0xbeabd7c3	-0.3356305
46	0x3f53aabc	0.82682395
47	0x3f0065a3	0.50155085
48	0xbf11a38b	-0.5689017
49	0x3e7e807a	0.24853697
50	0xbf2c7e61	-0.6738034
51	0x3f572d98	0.84053946
52	0xbfc92612	-1.5714743
53	0x3ef52273	0.47877845
54	0x3f9e1890	1.2351246
55	0x40010a60	2.0162582
56	0x3fbabffc	1.4589839
57	0xbf39eea1	-0.72629744
58	0x3d9205de	0.07130025
59	0xbf8efa71	-1.1170179
60	0x3fd48bca	1.660516
61	0xbf950263	-1.1641353
62	0x4007d265	2.1222165
63	0x3f6ecabf	0.93278116

l2.bias f4 [8]
0	0x3eb64d33	0.35605773
1	0x3f9f964a	1.246774
2	0x3eaa98ad	0.33319607
3	0xbed4dbc5	-0.4157392
4	0x3f700e7b	0.93772095
5	0x3c4c1650	0.012456492
6	0x3e9b9637	0.30388042
7	0x3f159a79	0.5843883

l3.weight f4 [30, 8]
0	0x3fe07221	1.7534829
1	0xc01f50c6	-2.489305
2	0xc076882b	-3.852061
3	0x3f95553e	1.1666639
4	0xc087c2c2	-4.242524
5	0xbfa70ecd	-1.3051392
6	0x3fb11437	1.3834294
7	0x3eb36e12	0.35044914
8	0x3e0f09c6	0.13968572
9	0xbf7f3ef7	-0.9970545
10	0x3f013455	0.5047048
11	0xc024948d	-2.5715668
12	0x3f7375bf	0.9510154
13	0xc08bf43e	-4.3735647
14	0xbffa52cc	-1.9556518
15	0xc09a0436	-4.813014
16	0xbd4db9de	-0.050226085
17	0xbe2a6e3e	-0.16643617
18	0xc05f1d62	-3.4861684
19	0xc097dce4	-4.745714
20	0xc00ad6e8	-2.1693668
21	0xc013ca78	-2.3092327
22	0x3fe4de1e	1.7880285
23	0x3f170505	0.58992034
24	0xbf8ad130	-1.0845089
25	0xbe22b3cd	-0.15888901
26	0x3f4ba47e	0.7954787
27	0x3ec1307b	0.377323
28	0xbff1be83	-1.8886265
29	0x3f852c4c	1.0404143
30	0xc058a421	-3.3850176
31	0xbf82da5a	-1.0222886
32	0x3ea820ca	0.32837516
33	0xc09ecab3	-4.9622436
34	0xbf6df313	-0.92949027
35	0xbf975435	-1.1822573
36	0xbffd7948	-1.9802637
37	0x3f215474	0.6301949
38	0x3fb0ae1e	1.3803136
39	0xc0930ace	-4.595069
40	0xbf1303f8	-0.5742793
41	0xc05fbc2b	-3.4958599
42	0x3f6bb479	0.92072254
43	0xc02003ba	-2.5002275
44	0x3e41e8d5	0.18936475
45	0xbf9527d7	-1.1652783
46	0xbf43ce7f	-0.76486963
47	0xc052d076	-3.2939734
48	0xbee5885c	-0.44830596
49	0x3f328f87	0.69750255
50	0xc0851778	-4.159115
51	0x3fd53064	1.6655393
52	0xbfa283b3	-1.2696441
53	0xc0b1b52b	-5.553365
54	0x3fb8dcf8	1.4442434
55	0xc001f628	-2.0306492
56	0xbf1f6f9c	-0.6227968
57	0xc060a4a5	-3.510049
58	0x3e831e0a	0.25608855
59	0x3f1c968a	0.61167204
60	0x3d514ffb	0.051101666
61	0x3fa0305a	1.2514756
62	0xc031c913	-2.7778976
63	0xc0654050	-3.5820503
64	0xbf17797a	-0.59169734
65	0x3f6ebd33	0.93257445
66	0x3ef53e76	0.47899216
67	0x3fb4848e	1.4102952
68	0xbfb4c9d3	-1.4124092
69	0xbf8df287	-1.1089638
70	0xbf0e2bf7	-0.55535835
71	0xc0bd8da5	-5.9235406
72	0x3e56b4b4	0.2096737
73	0xbf280b83	-0.65642565
74	0xc01b162c	-2.4232283
75	0xc0d075ba	-6.514371
76	0xbf1f273f	-0.6216926
77	0x3ff70ce3	1.9300808
78	0x3f212a31	0.62955004
79	0xc0907a94	-4.514963
80	0xbe5f7f8d	-0.21826
81	0xc0629184	-3.5401316
82	0xbf8f764b	-1.1207975
83	0x3f4d692e	0.80238616
84	0xbfc14fae	-1.5102441
85	0xc05bb722	-3.4330525
86	0x3fdf3e64	1.7440915
87	0xbf87cb5f	-1.0608939
88	0xc03fcc74	-2.9968538
89	0x3f1b3c1e	0.60638607
90	0xc0476939	-3.1157973
91	0xc0a883d9	-5.2660947
92	0xbe80a760	-0.25127697
93	0x3fe88da4	1.8168225
94	0xc00f08f1	-2.2349207
95	0x3f1d224b	0.6138045
96	0xbf41f3f3	-0.7576286
97	0xc0ba2ff1	-5.818352
98	0x3fdccf32	1.7250731
99	0xbe5a32a9	-0.21308388
100	0x3f75d240	0.9602394
101	0xc05948a0	-3.3950577
102	0xc053e38d	-3.3107636
103	0xbfa44590	-1.2833729
104	0x3f518928	0.8184991
105	0xc0b75f78	-5.730404
106	0x3ee559d8	0.44795108
107	0x3f9c623b	1.2217478
108	0xbe98cec1	-0.2984524
109	0x3f1b9d94	0.6078732
110	0xc09dc8c0	-4.9307556
111	0xbf06dd61	-0.5268155
112	0x3e52f87e	0.20602605
113	0xc0b5a3af	-5.676231
114	0xbf1de326	-0.61674726
115	0xc02a234e	-2.6584048
116	0x3ec7c2c7	0.3901579
117	0xc098584c	-4.7607784
118	0x3e9a0728	0.30083585
119	0xbf964879	-1.1740867
120	0x3fb0b646	1.3805625
121	0xc09a5295	-4.822581
122	0xc0ae0238	-5.437771
123	0x3eb4110f	0.35169265
124	0xbe418a02	-0.18900302
125	0xc08ee269	-4.465138
126	0xc008591c	-2.1304388
127	0x3f951c24	1.1649213
128	0x3f6c2c11	0.9225474
129	0xbf4646c8	-0.77451754
130	0xbf020397	-0.5078673
131	0xbf181e02	-0.5942079
132	0xc080facf	-4.0306163
133	0x3e82f5c2	0.25578123
134	0x3f88a130	1.067419
135	0xbfdb220c	-1.7119765
136	0xbe570794	-0.20998985
137	0xbf88f9ec	-1.070127
138	0x3f4b020a	0.79299986
139	0x3e935e0f	0.287827
140	0xc06ce9a8	-3.7017612
141	0xbec6b9f0	-0.38813734
142	0xbf870977	-1.0549763
143	0x3f166d6b	0.5876071
144	0xbdc63687	-0.09678369
145	0xc0a50e1c	-5.1579723
146	0x3f387f7d	0.7206953
147	0x40070318	2.1095638
148	0xc054de17	-3.3260553
149	0x3ee33e2a	0.44383365
150	0xbf22ace8	-0.63545084
151	0xbfee63f6	-1.8624256
152	0x40105806	2.2553725
153	0xc025d17a	-2.5909104
154	0xc0513643	-3.2689369
155	0x40534cf2	3.3015714
156	0xbfc758af	-1.5573939
157	0x3f2db336	0.6785158
158	0xc00f70aa	-2.2412515
159	0xbda169a0	-0.078814745
160	0xbfc97520	-1.5738869
161	0x3ec3cefd	0.38243857
162	0xbf57433a	-0.84086955
163	0xbe2c3fac	-0.16821164
164	0xbf6de0ef	-0.92921346
165	0x3f083b63	0.53215617
166	0x3f19c50c	0.60066295
167	0xbe813e5d	-0.25242892
168	0xbf3edb21	-0.74553114
169	0x3ef48f14	0.4776541
170	0x3e94c6bf	0.2905788
171	0xbf3b7ed1	-0.7324038
172	0x3e906a22	0.28205973
173	0xbf2af941	-0.6678658
174	0xbfbb298d	-1.4622055
175	0x3eb25eca	0.34837943
176	0x3c953a14	0.01821617
177	0xbc8dd81e	-0.017314967
178	0xbde11c2d	-0.10991702
179	0xbf4bc43c	-0.79596305
180	0x3d1c45bf	0.038152453
181	0xbf432e11	-0.76242167
182	0xbfc44779	-1.5334312
183	0x3f1cb1c9	0.6120878
184	0x3fa2ede6	1.2728851
185	0xc0234db1	-2.551617
186	0xbeb6be92	-0.3569227
187	0x3fdbac71	1.7162
188	0xbdbbaee0	-0.09164214
189	0xc06cde84	-3.7010813
190	0xbff52e62	-1.915478
191	0xc04c040d	-3.1877472
192	0xbf758b4c	-0.95915675
193	0x3f395aff	0.72404474
194	0xbfb407a7	-1.4064835
195	0xbd88fcc0	-0.06688833
196	0xbfcc55d1	-1.5963689
197	0x3ebaa47a	0.3645361
198	0x3ea4dcb2	0.32199627
199	0x3eba3c54	0.36374152
200	0xbe335e59	-0.1751646
201	0xc0eeab62	-7.4584208
202	0x3f28b004	0.6589358
203	0xbf96a5bb	-1.1769327
204	0xbfb9a916	-1.4504726
205	0x3f7111b5	0.94167644
206	0xbf89fff4	-1.0781236
207	0x3e886ab7	0.26643917
208	0xbf57a42d	-0.8423489
209	0xc01855f2	-2.3802457
210	0xbf906e50	-1.1283665
211	0xbffd4c2e	-1.9788873
212	0xbfc87552	-1.5660803
213	0x3fbf4d79	1.4945518
214	0x3f86912b	1.0513052
215	0xbde76087	-0.11297708
216	0xbfd98f20	-1.6996803
217	0x3ebef872	0.37298924
218	0x3edc042c	0.42971933
219	0xbfc5710b	-1.5425123
220	0xbf059ac3	-0.5218927
221	0xc01b384a	-2.4253106
222	0x3f83d7ed	1.030027
223	0xc050f0ed	-3.264705
224	0xbfe77d20	-1.808506
225	0x3fbd0b90	1.4769154
226	0xbf86a969	-1.052045
227	0xbf4f3418	-0.80938864
228	0xbe2d8583	-0.16945462
229	0x4003cdee	2.059444
230	0xc01011d4	-2.2510881
231	0xc0a35bf1	-5.1049733
232	0x3f23cd13	0.63984793
233	0xbff490fd	-1.9106747
234	0xc00c9657	-2.196676
235	0xc01971f1	-2.3975794
236	0x3ea229c0	0.31672478
237	0xc063034c	-3.5470762
238	0x3f60e835	0.8785432
239	0xc08a0e92	-4.3142786

l3.bias f4 [30]
0	0x3b4848b0	0.0030560903
1	0xbf022e52	-0.5085193
2	0xc00f6855	-2.240743
3	0xbf777b36	-0.9667238
4	0x3e51dc5d	0.20494218
5	0xbf606a5f	-0.8766231
6	0xbec65926	-0.3873989
7	0xbf22ef22	-0.6364614
8	0x3e702203	0.23450474
9	0x3e53336c	0.20625085
10	0xbdd1ab22	-0.10237719
11	0xc088753e	-4.264312
12	0xbf6df5db	-0.9295327
13	0xbf8eeb3e	-1.116554
14	0xbfbf6205	-1.4951788
15	0xbf05e757	-0.5230612
16	0xbfaddf99	-1.3583862
17	0xbfadfb78	-1.3592367
18	0xbb244594	-0.0025065886
19	0x3ee95d51	0.45579007
20	0x3df580ec	0.119874805
21	0x3e2616de	0.1621966
22	0xbdc7da54	-0.0975844
23	0x3d0bc620	0.034124494
24	0x3e93daa2	0.2887774
25	0xbd534c1b	-0.05158625
26	0xc04d67ca	-3.2094598
27	0xbe0eb30f	-0.13935493
28	0x3f5c275b	0.8599755
29	0xbd616373	-0.055026483
