chatbot-deployment/data.pth (torch, 7338 bytes, 6 tensors)

l1.weight f4 [8, 90]
00000000: 2109 e43e a49d bcbe da03 963d 1017 1b3f
00000010: 3287 883f 39ed c13e 4fe6 373f e07c ee3d
00000020: e521 d83e 17fb 0cbf 4a8a 06bf 23a6 0d3f
00000030: a3d7 713d 8bb6 da3e f208 26be 52d4 d13e
00000040: 83fd 603e 1c0a e93e acbf 063f a162 e8be
00000050: 9980 20bf 8311 1e3f d576 12bf fff7 a83d
00000060: e675 483f 92c3 573e 4d5d ebbe aaf6 b9be
00000070: 7cca c8be d57a b9be a145 303f 0665 f33e
00000080: 5e6c 293e 4fd4 583f b3c3 293e 20d2 663f
00000090: 6000 543f 4b9c ba3e aeea 8b3e 73be f23e
000000a0: ca69 85be b69c 9ebe ed01 843e 6598 e5be
000000b0: 25ec 053f 4b15 263f 10dc a53e 9338 7cbe
000000c0: cd0c 12bd cc03 fc3d e2b2 333f 9b93 4e3f
000000d0: 5cd6 25be 9498 043f f34a f73e f554 1d3e
000000e0: 9287 293f b3a8 223f 925b 073f 73fa dfbe
000000f0: ce19 8e3e f40f e0be dd63 3e3f 30fa 1abf
00000100: 14af 07bf acae d8be 66d9 773e 9d83 66be
00000110: 9c4f 0ebf ddf4 01bf 55cf fcbe 1f15 d3be
00000120: 9e46 03bf f296 db3e 8b6c 0fbe 7565 873e
00000130: 3f6f 2c3f eebe 173c 33cd 4b3e b631 d0be
00000140: 45e5 f13e 4f1c 09bf e956 193f e627 b1be
00000150: 3838 f4be e2c5 0e3e a4ba 003f beb7 0ebf
00000160: 5140 b93e 54a5 013f 3006 72be 0f16 95bd
00000170: 2d37 dd3e 254c 093f ef11 f3be a4d4 d7be
00000180: 86d4 28bf 4ce2 6dbe 4e3c 28bf 6ede 0e3d
00000190: 6115 303f c789 913f 6177 b43e 3b61 a63e
000001a0: 5b13 a2bd c50e cabe 8d3f 93bd 63d7 2ebf
000001b0: bd44 863e 3a96 163f b0a1 023f 6e38 a1be
000001c0: a1b2 333f b398 b03e e35f cdbe bfc3 333f
000001d0: 0089 3f3f 35c7 3fbd 6a4f d63e 1f46 1b3f
000001e0: faaf acbe 4d57 823f f467 1b3f a4ff 26bf
000001f0: 10dd 08be e3f6 26bf 54fc 26bf e758 0abe
00000200: e5ab 3ebd b02b 0fbf c263 803f 778b 5d3f
00000210: 9f17 303f 81e9 5f3f 223f 95bd e457 083f
00000220: 3152 9f3e 004e 473e 1adb 8cbe 6599 1f3f
00000230: da10 3fbd 15ea a8bc 96e3 80bd f5f8 20bf
00000240: 813b c8be 81e8 c3be 0e20 1cbf 1761 ca3e
00000250: 2c2a cd3e 78e3 d23e 9ec6 92be 4cdd 203f
00000260: 1964 ab3d 5dd3 b73d ea77 2e3f 026b 4f3f
00000270: ef73 183f 6bed 6a3f 83ae 323f 6369 2b3f
00000280: c228 e53e 7dc4 1c3f ce95 c13d db89 26bf
00000290: afa4 5f3f 5a6b 4dbe e416 23be c5b4 3dbf
000002a0: cb52 6dbe 2085 dd3e 7c2e af3e 3393 2e3f
000002b0: 7346 933c ba39 403f 169e ac3e 26db 363f
000002c0: a4ed b93d f07b 693d 95db 113e 6a10 ea3d
000002d0: aeac 303f bc7a 04bd bea3 18bd 33f5 0ebf
000002e0: 6ee0 d23e d95c cd3e 6205 9e3e ca60 6fbe
000002f0: 18a2 2f3f 7824 e5be 69cf 1d3f 36a0 343f
00000300: 14c2 b53c 4360 a9be f413 2abf 620b 163f
00000310: b898 a53e a19e f5be 9633 94be 68a2 d53e
00000320: c872 b83e 4305 c63e 1aba 8e3e a978 b5be
00000330: 0cdc cc3e 16d9 903e 8284 af3c 963a a1be
00000340: 41d1 8d3e 6278 3cb9 9c31 d93e 398c 303f
00000350: 1649 a8bd f1df d53e 7651 263f 7cf9 a33e
00000360: 8a2c 0a3f d2fd 7d3c d940 37be 37cd cf3e
00000370: f1af 10bf 9553 ecbe 2c1b c43e db3f 173e
00000380: c8ee fc3e 9bff ebbe 165b 553c 4b9e 233e
00000390: e602 04be f046 0a3d 5f17 1e3e f84e 7b3e
000003a0: 57e6 39bf 47da b03e e019 843e 5fc5 9fbe
000003b0: b905 dc3e 2cb2 303e 42c4 1a3e 489c 973e
000003c0: 8f95 0f3f 7c78 f03d 0073 6a3e fc9c 16bf
000003d0: 73f0 483f 8fd8 283f ff56 bf3e 09c2 43bf
000003e0: 8fef 593f 3823 e13d b7cc d93e 943b 1b3f
000003f0: d617 e7be ce92 1dbf 14be 02be 3fa0 9b3b
0.44538215 -0.3683902 0.073249534 0.60582066 1.0666258 0.378763 0.718358 0.11644912
0.4221336 -0.5507063 -0.5255476 0.5533163 0.059043538 0.42717394 -0.1621435 0.409823
0.21971707 0.45515525 0.5263622 -0.45387748 -0.62696224 0.6174547 -0.57212573 0.082504265
0.783049 0.21070698 -0.4596962 -0.36321002 -0.39216983 -0.36226526 0.68856245 0.47538012
0.16545245 0.8469896 0.1657856 0.90164375 0.8281307 0.36447367 0.27327484 0.47410926
-0.26057273 -0.30978936 0.2578272 -0.4484283 0.5231345 0.6487624 0.32394457 -0.24630956
-0.03565674 0.12305412 0.7019483 0.8069398 -0.16195053 0.51795316 0.4829937 0.1536444
0.6622249 0.63538665 0.528741 -0.43745765 0.27754062 -0.4376217 0.7437113 -0.60538006
-0.53001523 -0.42320764 0.24204025 -0.22511144 -0.55590224 -0.50764257 -0.49376932 -0.41227052
-0.5127963 0.428886 -0.1400625 0.26444593 0.6735725 0.00926183 0.19902496 -0.40662926
0.4724523 -0.5355882 0.5989824 -0.34600753 -0.47699142 0.13942674 0.5028479 -0.5574912
0.36181882 0.50642896 -0.23635173 -0.07279598 0.43206158 0.5363181 -0.4747462 -0.4215442
-0.65949285 -0.23230857 -0.6571702 0.034880094 0.6878262 1.1370171 0.3524733 0.32496056
-0.07913848 -0.39464393 -0.07189856 -0.68297404 0.26224318 0.5882298 0.51027966 -0.31488365
0.7019444 0.344915 -0.40112218 0.7022056 0.7481842 -0.046820838 0.41857463 0.6065387
-0.3372801 1.0182892 0.60705495 -0.65233827 -0.13365579 -0.6522047 -0.6522877 -0.13510476
-0.04655065 -0.55926037 1.0030444 0.8654093 0.6878604 0.87465674 -0.07287432 0.5325911
0.31117395 0.19463348 -0.2751091 0.62343436 -0.04664693 -0.020619432 -0.062934086 -0.6287988
-0.39107898 -0.38263324 -0.6098641 0.395272 0.40071237 0.4118917 -0.28667158 0.6283767
0.083687015 0.08975861 0.68151724 0.81022656 0.595519 0.9176852 0.69797534 0.6695768
0.44757658 0.6123732 0.09452401 -0.650541 0.8736066 -0.20060483 -0.15926701 -0.7410396
-0.23176114 0.4326563 0.34215152 0.6819336 0.017977929 0.75088084 0.3371436 0.71428144
0.090785295 0.05700296 0.1424392 0.11428912 0.6901349 -0.03234361 -0.03726553 -0.55842894
0.4118685 0.401099 0.30863482 -0.23376766 0.6860671 -0.44754386 0.6164461 0.7055696
0.02218727 -0.33081254 -0.66436696 0.5861112 0.32343078 -0.47972587 -0.28945607 0.4172547
0.3602507 0.3867589 0.2787636 -0.3544362 0.40011632 0.28290623 0.02142549 -0.3149001
0.2769871 -0.00017973923 0.4242066 0.6896396 -0.08217065 0.41772416 0.6496805 0.3202628
0.5397421 0.01550241 -0.17895831 0.40586254 -0.56518465 -0.46157518 0.3830198 0.14770453
0.49400926 -0.4609345 0.013022205 0.15978353 -0.1289173 0.033759058 0.15438603 0.24541843
-0.72617096 0.34541532 0.2580099 -0.3120527 0.42973116 0.17255467 0.15113929 0.2961142
0.56087583 0.117417306 0.22895432 -0.5883329 0.78491896 0.6595544 0.3737106 -0.7646795
0.8513116 0.109930456 0.42538998 0.60637784 -0.45135373 -0.6155213 -0.12767822 0.0047493274

l1.bias f4 [8]
00000000: 0762 a53f b8f5 263f 68d7 683f ac33 243f
00000010: 5c70 893f b2ee 673f 3f40 663f dbfd 903f
1.292054 0.6521869 0.90953684 0.64141345 1.0737414 0.90598595 0.8994178 1.132747

l2.weight f4 [8, 8]
00000000: 8fc9 913f 30fa 78be 9587 9cbf 92bb b83f
00000010: 1d21 1abf 9b1b e23f 15ea ce3e cd12 2e3f
00000020: f2ac dfbd cc4d 843d b8be 5f3e 1e00 893e
00000030: 177b 8bbf 2696 8f3f 1063 173f 8959 9fbf
00000040: d147 a3be 6001 af3f 19e6 713f f212 743f
00000050: 9544 aebf 4fff 17bf 08e4 673f d1f0 203e
00000060: bf0e 983f 96ad ae3e 9e17 923e e6a7 9fbf
00000070: 34bb 73bf 6b63 9e3e d489 8c3f 2900 24bf
00000080: 0042 cb3f 7b80 b6bf a039 d73f 4575 70bf
00000090: 8cc4 8c3f 71c1 e43e a47a 1f3f e054 82be
000000a0: 3c1e d5bd 4053 e03f 1f84 b03c ef7e 153f
000000b0: a8b0 8dbe 500b 793f 941f c03f c20d 63bf
000000c0: 2ef7 e03e 8ce0 a2bf a830 a33f 0c8f 53bf
000000d0: 991b 1d3f 7639 93bf a3cd 203f 3ca0 4dbf
000000e0: 6ab3 a33f 46ef 9d3f 543f 033f ff21 2b3f
000000f0: 5ce7 ca3f 0e06 5b3f 9276 45bf e9b8 b53f
1.1389636 -0.24314189 -1.2228876 1.4432242 -0.60206777 1.7664675 0.40412965 0.6799744
-0.109216586 0.06460151 0.21850097 0.26757902 -1.0896939 1.1217697 0.5913553 -1.2449199
-0.3189073 1.3672295 0.94491726 0.9534141 -1.361468 -0.59373945 0.90582323 0.15716864
1.18795 0.3411681 0.28533643 -1.2473114 -0.95207524 0.30935225 1.0979562 -0.64062744
1.5879517 -1.4257959 1.6814461 -0.9392894 1.0997481 0.44678834 0.6229651 -0.2545538
-0.104061574 1.7525406 0.021547375 0.5839681 -0.2767384 0.97282887 1.5009637 -0.8869287
0.43938583 -1.2724776 1.2749224 -0.8264015 0.61370236 -1.1501911 0.62813777 -0.80322623
1.2789128 1.2338645 0.51268506 0.6684875 1.5851855 0.85556114 -0.7713405 1.4197055

l2.bias f4 [8]
00000000: e744 ca3e 9740 67be f25b 993e cb63 c53e
00000010: abd3 4b3f 48b0 933e 08eb 003e 70fe 653f
0.39505693 -0.22583233 0.2995296 0.38552698 0.79619855 0.2884543 0.12589657 0.89841366

l3.weight f4 [14, 8]
00000000: 04b1 18bf 33d4 24be ab3e 91bb 5b17 be3e
00000010: a591 903e f45e 80be 9b83 e93e 4eb2 62bf
00000020: bfef b3bf b285 013e eb9a 0b3f 00a1 ba3e
00000030: e597 f3be d3ef aa3e 5d60 65bf a82d 54bf
00000040: 8672 5a3f a27a 42bf 6658 63be 3ed3 40bf
00000050: 83ac b5bf 1397 acbf fbf1 ebbe 1897 943e
00000060: 8a40 81bf caf3 e0be 8200 973e 60ba 1ebf
00000070: 3011 8bbf 98b7 83bf 22d1 72bf dc81 6e3f
00000080: 1a77 90bf 03ea cdbf 933b e7bf a338 823e
00000090: 34a5 243f 7aad 593d cf44 d33e 7fd8 96be
000000a0: 7c44 23bf aa1b 05c0 6b22 06bd 3cf3 2a3f
000000b0: a4e9 f2bd 0154 ae3e b209 09c0 4f89 453e
000000c0: 73b0 2b3d 9bbe 13bf af30 b0bf b3d3 26bf
000000d0: e2b5 0f3f 383c febf e374 d1bf 6f6e 0d3f
000000e0: 410e 873e d07d eabf 4655 753d 0483 95bf
000000f0: 7e1f dbbf fba8 dc3e 2fcc e4be c445 233e
00000100: c529 26be 003d 163f 4a06 d1bf 3486 4c3e
00000110: 56f4 373e d85b 49be 310b 61bf 0cc6 6cbe
00000120: 3993 a83e 8c56 abbe ee08 f4bf 0b45 5ebf
00000130: 4227 18bf d578 9e3e 36f1 19c0 5a76 be3e
00000140: 2507 dd3b 72f6 1b3f 6e10 adbe e31f 093f
00000150: 2859 1bbf 64bb f43d cf93 1cc0 6db0 14bf
00000160: e6ba 1f3f 7800 df3e 192b 54be 80b6 febe
00000170: 42a2 debf 800e 873e 1c01 4bbf 176f 12bf
00000180: 1771 13bf 220f 69bc 5f3a 4b3f 6c68 59bf
00000190: 10ad 9bbf aee0 f83e 47b6 65c0 520a 97be
000001a0: a45a 03c0 a160 20bf 032e 81bf b09b 94bf
000001b0: 0fd6 3e3f d7d4 c3bf b876 a73f 33fd a63e
-0.59645104 -0.16096573 -0.0044325194 0.37127194 0.28236118 -0.25072443 0.4560822 -0.8855332
-1.405754 0.12648657 0.5453326 0.36450958 -0.47576824 0.33386096 -0.89600164 -0.82882166
0.85331 -0.7596837 -0.2220169 -0.7532233 -1.4193271 -1.3483604 -0.46083054 0.29021525
-1.0097821 -0.43935996 0.29492575 -0.62003136 -1.086462 -1.0290403 -0.9485036 0.931669
-1.1286347 -1.608704 -1.8065056 0.25433835 0.6431458 0.053143956 0.41263434 -0.29462048
-0.63776374 -2.0798135 -0.032747667 0.66777396 -0.1186097 0.34048465 -2.1412168 0.1929066
0.041916322 -0.57712716 -1.3764857 -0.6516678 0.56136906 -1.9862127 -1.6363796 0.55246633
0.26378062 -1.8319645 0.059895776 -1.1680608 -1.7118986 0.43097672 -0.4468703 0.15944582
-0.16226871 0.5868683 -1.6330044 0.1997307 0.179643 -0.19663942 -0.879077 -0.23122424
0.32924822 -0.33464468 -1.9065225 -0.868241 -0.594349 0.30951563 -2.4053473 0.3719967
0.0067452365 0.6092292 -0.33801597 0.5356428 -0.60682917 0.119498044 -2.4465215 -0.58081704
0.6239456 0.43555045 -0.20719565 -0.4974861 -1.7393267 0.2637825 -0.7929857 -0.5720076
-0.57594436 -0.014224799 0.7938594 -0.8492496 -1.216219 0.48608917 -3.5892503 -0.2950006
-2.0524073 -0.62647444 -1.0092167 -1.1610012 0.7454538 -1.5299329 1.3083105 0.3261505

l3.bias f4 [14]
00000000: 47f1 e5be 145d 6abd 1298 313e 74e4 253e
00000010: 16c9 09be 365a af3e eac8 163e 26e4 f8bd
00000020: 00aa 05bf 29f1 ccbe b86d 27be 13cf 9f3d
00000030: 652c 61bd e63f 293f
-0.44910643 -0.057217672 0.17343166 0.16200429 -0.13455614 0.34248513 0.1472508 -0.12152891
-0.52212524 -0.4002774 -0.16350448 0.07803168 -0.05497398 0.66113126
