chatbot-deployment/data.pth (torch, 14698 bytes, 6 tensors)

l1.weight f4 [8, 231]
0	0x3ea9bb39	0.33150652
1	0x3eb2eaf3	0.34944877
2	0xbeb45a24	-0.35225022
3	0x3eb5158c	0.35368
4	0xbf3a26bf	-0.7271537
5	0xbf26212d	-0.6489437
6	0x3f4345f3	0.7627861
7	0xbe88f08f	-0.26746032
8	0x3f343f87	0.70409435
9	0xbe0b27c3	-0.13589387
10	0x3f99cc6d	1.2015511
11	0x3e83079f	0.25591752
12	0x3fac239e	1.344837
13	0x3e7e0f41	0.24810506
14	0xbe62eace	-0.22159883
15	0xbf392e6d	-0.72336465
16	0x3f9b228f	1.2119921
17	0x3da8fc95	0.08251301
18	0x3ecfdd88	0.40598702
19	0xbf18aaf8	-0.5963588
20	0xbec0643a	-0.37576467
21	0x3fa3b8cb	1.2790769
22	0xbf3e27e6	-0.7427963
23	0xbf693fc6	-0.91112936
24	0x3f1328cd	0.5748413
25	0x3f40a6c0	0.7525444
26	0xbea1b82f	-0.31585833
27	0xbd44c3bf	-0.04803824
28	0xbfaadd64	-1.3348813
29	0x3e17e21a	0.14832345
30	0x3dd5eb89	0.104453154
31	0xbd80c40d	-0.06287394
32	0xbf7eea27	-0.9957604
33	0x3d6f14aa	0.058369316
34	0xbf0fea0a	-0.5621649
35	0x3dc1d102	0.09463693
36	0x3e69eb36	0.22843632
37	0xbc2709d2	-0.010195212
38	0xbf617d6a	-0.8808199
39	0xbdf59c1e	-0.119926676
40	0xbe6e40db	-0.23266928
41	0xbdec62fc	-0.11542317
42	0x3f6c22e9	0.9224077
43	0xbf2736c7	-0.6531796
44	0x3e34ee43	0.17669015
45	0x3f9e5d0d	1.2372147
46	0x3efe0d36	0.49619454
47	0x3efd55ac	0.49479425
48	0x3edc7465	0.43057552
49	0xbe9c58d7	-0.3053653
50	0xbf1609ba	-0.5860859
51	0x3fc63b69	1.548688
52	0x3eca18c0	0.39472008
53	0x3e6cec8e	0.23137113
54	0xbe37ea1c	-0.179604
55	0x3f8de788	1.1086283
56	0xbfcfd368	-1.6236391
57	0x3f75a7a6	0.95958936
58	0xbf6ea5f9	-0.93222004
59	0xc019b8bd	-2.4019005
60	0x401ca896	2.4477897
61	0x3fac40eb	1.3457311
62	0xbf10f4b6	-0.566234
63	0x3f75ef35	0.96068126
64	0xbdc31638	-0.09525722
65	0xbd53eeab	-0.051741283
66	0x3e340fe3	0.17584185
67	0x3dacf952	0.084459916
68	0x3f03669b	0.5132844
69	0x3d54f398	0.05199012
70	0x3eaae700	0.33379364
71	0xbd87fa6e	-0.066395625
72	0xbe08a503	-0.13344197
73	0xbe23a944	-0.15982538
74	0xbe689685	-0.22713669
75	0x3eca2535	0.39481512
76	0xbe5cd634	-0.21566087
77	0xbee51cc2	-0.44748503
78	0xbfd67c16	-1.6756618
79	0xbd17539e	-0.036944978
80	0xbda1634e	-0.07880269
81	0xbf04ac25	-0.5182517
82	0xbd5bd34d	-0.05366831
83	0x3fe983d8	1.824336
84	0xbf201228	-0.62527704
85	0x3f469581	0.77571875
86	0xbf78ca11	-0.9718333
87	0x3e604084	0.21899611
88	0x3e47f25d	0.19526048
89	0xbf56422a	-0.8369471
90	0xbeb1bf7e	-0.3471641
91	0xbf0fe705	-0.5621188
92	0xbf0fef69	-0.56224686
93	0xbe23c6b2	-0.15993765
94	0x3f2b06cf	0.66807264
95	0x3d3c511d	0.045975793
96	0x3e5e0071	0.21679856
97	0xbf104524	-0.563555
98	0x3f6ae037	0.91748375
99	0xbf1003f7	-0.5625605
100	0xbf0febbd	-0.56219083
101	0x3e88511a	0.26624376
102	0xbe3ca2d8	-0.18421495
103	0xbe8c44a4	-0.2739612
104	0xbe87ace1	-0.26499084
105	0x3f6286d6	0.88486993
106	0x3d80bcc6	0.06286006
107	0x3fde9354	1.7388711
108	0xbed2c619	-0.41166762
109	0xbcbc03a3	-0.022950953
110	0xbe90cd74	-0.28281748
111	0x3fe46fc5	1.7846609
112	0xbeaf8c46	-0.34286708
113	0x3f840d8f	1.0316638
114	0x3f302dc4	0.6881983
115	0x3dc7999d	0.09746096
116	0xbeb087f3	-0.3447872
117	0xbd63f0c4	-0.055649534
118	0x3d8e77af	0.069564216
119	0xbe399ffd	-0.18127437
120	0x3e59528a	0.21222892
121	0x3f01c2ea	0.5068804
122	0x3f8492bc	1.035728
123	0x3f9b034b	1.211038
124	0x3f8f9ee0	1.122036
125	0x3c24d6d5	0.010060986
126	0x3ea2b890	0.31781435
127	0xbdff2edd	-0.1246011
128	0x3d342cd1	0.043988053
129	0xbe5e4f37	-0.21709906
130	0x3f8744c0	1.0567856
131	0x3d43c84c	0.04779844
132	0x3e0bdced	0.13658495
133	0x3f5871c1	0.84548575
134	0xbe0e47d2	-0.13894585
135	0xbdc388d9	-0.09547586
136	0xbd3a21c9	-0.045442376
137	0x3f1fd3b3	0.624324
138	0xbdadd8cc	-0.08488616
139	0x3d511a92	0.05105073
140	0xbe36a89a	-0.17837754
141	0x3e7ab313	0.24482374
142	0xbf65d622	-0.89779866
143	0x3ed9fd2b	0.42575964
144	0x3f55bd27	0.8349175
145	0xbdbf3156	-0.09335582
146	0xbf36af34	-0.7136109
147	0xbd88fff4	-0.06689444
148	0x3f27752d	0.6541317
149	0xbeb60637	-0.35551617
150	0xbe350835	-0.17678912
151	0xbf6c748f	-0.92365354
152	0xbe2edd5c	-0.1707663
153	0xbf4b35bb	-0.7937886
154	0xbfd93575	-1.6969439
155	0x3f2579b2	0.6463882
156	0xbf0fc24a	-0.56155837
157	0x3dd7d773	0.105391406
158	0xbdd1934b	-0.10233172
159	0xbd9fbcf6	-0.07799713
160	0x3bade10b	0.005306368
161	0x3e62732d	0.22114249
162	0x3f096def	0.5368337
163	0xbe42c547	-0.19020568
164	0xbfabb0d5	-1.341334
165	0xbeb6121e	-0.35560697
166	0xbf2865d1	-0.6578036
167	0x3e82af3b	0.25524315
168	0xbe8f2975	-0.27961317
169	0xbe8e7961	-0.2782698
170	0x3ee2f02d	0.44323865
171	0x3f462bf9	0.77410847
172	0xbf910ed0	-1.1332645
173	0x3fb213b2	1.391226
174	0xbe3c9bde	-0.18418834
175	0x3f8fd01d	1.1235386
176	0xbfa51837	-1.2898015
177	0xbe173dd4	-0.1476968
178	0xbe98f142	-0.29871565
179	0x3f1a66eb	0.6031329
180	0xbe905ddb	-0.28196606
181	0x3e141125	0.14459665
182	0xbc8437e4	-0.016139932
183	0x3ebcf8a1	0.3690844
184	0x3ddd0578	0.10792059
185	0xbf1a3335	-0.60234386
186	0xbe6389f0	-0.22220588
187	0xbf741e81	-0.95359045
188	0x3f396379	0.7241741
189	0x3dbcb14f	0.092135064
190	0xbe05f5a9	-0.13081993
191	0xbf7549e6	-0.95815885
192	0xbe7ceb0b	-0.24699037
193	0x3f73b24e	0.95193946
194	0xbf2489b2	-0.64272606
195	0x3fb2c348	1.3965845
196	0x3f5f15b7	0.8714251
197	0x3f6f9d42	0.9359933
198	0xbd71d89e	-0.059044473
199	0x3d5dbaa0	0.054133058
200	0xbb1daaf7	-0.0024058202
201	0xbc31e4a2	-0.010857733
202	0xbe324969	-0.17410816
203	0xbea6dfdd	-0.3259267
204	0x3f9a99f6	1.2078235
205	0x3e48251e	0.19545409
206	0x3e80c48b	0.2514995
207	0x3ead1d6a	0.33811504
208	0x3edc12a1	0.42982963
209	0x3f2a6983	0.6656725
210	0xbe4d5c97	-0.20054851
211	0xbf3a6c07	-0.72821087
212	0xbe771c8b	-0.24131982
213	0x3fb0cd0c	1.3812575
214	0x3ef827dc	0.4846791
215	0xbec6649b	-0.3874863
216	0xbcd8de67	-0.026473237
217	0xbed35b54	-0.41280615
218	0x3f265058	0.64966345
219	0x402cb24b	2.6983821
220	0xbda6b571	-0.08140076
221	0x3deb6253	0.11493363
222	0xbea15550	-0.315104
223	0xbf8953dc	-1.0728717
224	0x400a5e14	2.161992
225	0x3f637fc7	0.8886685
226	0xbd617acd	-0.055048753
227	0x3f3fb1fa	0.74880946
228	0xbe54ef0c	-0.20794314
229	0x3d7b8be6	0.061412714
230	0x3f0cad3b	0.5495183
231	0xbe48400b	-0.1955568
232	0xbe4f2304	-0.20228201
233	0x3f3b01b3	0.7304947
234	0xbe46d884	-0.19418532
235	0x3fe2b653	1.7711891
236	0x3fdb49ac	1.7131858
237	0x3dee2e81	0.11629964
238	0x3ed1ea10	0.40998888
239	0xbe114c71	-0.14189316
240	0x3fed01d0	1.8516178
241	0x3f3058bd	0.68885404
242	0xbd9e9378	-0.07742971
243	0x3ec77449	0.38955906
244	0xbe2173ae	-0.15766785
245	0x3f8ae166	1.0850036
246	0x3f988535	1.1915652
247	0xbf99912f	-1.1997432
248	0xbd66a653	-0.056310963
249	0x3f84b429	1.036748
250	0x4018474f	2.3793523
251	0x3febc70f	1.8420123
252	0xbe17a5b1	-0.148093
253	0xbecd8cbc	-0.40146434
254	0xbeb3c657	-0.3511226
255	0x3f97694c	1.1829009

l1.bias f4 [8]
0	0x3f0e696b	0.55629605
1	0x3f1cb338	0.61210966
2	0x3f48e2eb	0.7847125
3	0x3ef85b57	0.48507187
4	0x3ebb2124	0.36548722
5	0x3f71f734	0.9451783
6	0x3f0dc59f	0.5537967
7	0x3f5be7ad	0.85900384

l2.weight f4 [8, 8]
0	0x3f6519b8	0.8949237
1	0xbf3d3923	-0.7391531
2	0xbf657d80	-0.8964462
3	0x3f975fec	1.1826148
4	0x3fd99c3b	1.7000803
5	0x3f1f4092	0.622079
6	0x3f84101d	1.0317417
7	0x3fa2f571	1.2731153
8	0xbf329dde	-0.69772136
9	0xbf6c8610	-0.92392063
10	0xbd5fe615	-0.054662783
11	0x3b0dd611	0.0021642486
12	0xbea5afb7	-0.32360622
13	0x3f84f37e	1.0386808
14	0x3fa2a447	1.2706383
15	0xbe1d3933	-0.15353851
16	0xbf04d91e	-0.51893795
17	0x3f17d259	0.5930534
18	0x3eea360f	0.45744368
19	0x3f876581	1.0577852
20	0x3ee76043	0.4519063
21	0xbf0e77b9	-0.5565143
22	0xbe28a232	-0.16468123
23	0xbdd91101	-0.10598946
24	0xbeca3595	-0.39494005
25	0xbfa370ef	-1.276884
26	0x40090d86	2.1414504
27	0xbf0ac5c4	-0.54208016
28	0xbf8e06a3	-1.1095775
29	0xbe1c0904	-0.15237814
30	0x3edc03a4	0.42971528
31	0x3fb7389e	1.4314153
32	0xbf92668c	-1.1437545
33	0x3fb9fced	1.4530312
34	0x3fbc0a44	1.4690633
35	0x3dfa22ce	0.1221367
36	0x3f7065c2	0.9390527
37	0xbc2d5f30	-0.0105817765
38	0x3fd6bedb	1.6776994
39	0xbf0408f8	-0.51576185
40	0x3f7606e6	0.96104276
41	0x3fa19f58	1.2626753
42	0x3e65ff63	0.22460704
43	0x3fee5708	1.862031
44	0xbf570f12	-0.8400737
45	0x40031433	2.0481079
46	0xbe8805dd	-0.26566973
47	0xbf3d2f8c	-0.73900676
48	0xbfa18d01	-1.2621156
49	0x3fb62d3c	1.4232554
50	0xbea1e9c7	-0.3162367
51	0xbfdadc15	-1.7098414
52	0x3f067c6e	0.52533615
53	0x3fdf8772	1.746321
54	0xbfd1b520	-1.63834
55	0x3fa7dd9e	1.3114507
56	0x3ffe4dd7	1.9867505
57	0xbfb3cb0c	-1.404634
58	0x3e4813fa	0.1953887
59	0x3f9ba5ac	1.2159934
60	0x3fb1fdeb	1.3905615
61	0xbee72506	-0.45145434
62	0xbfacad63	-1.3490413
63	0x3fa48716	1.2853725

l2.bias f4 [8]
0	0xbe95fe57	-0.29295608
1	0x3eee7585	0.46574035
2	0xbebba775	-0.36651197
3	0x3f4e7763	0.8065092
4	0x3e3a663b	0.1820306
5	0x3f1aabad	0.60418206
6	0x3f69cfc0	0.91332626
7	0x3f0c78ca	0.5487181

l3.weight f4 [30, 8]
0	0xbf3eb361	-0.7449246
1	0x3fad1f63	1.3525203
2	0xc0df54ad	-6.9790864
3	0xbdb02b29	-0.08601982
4	0xc0d5498f	-6.6652293
5	0x3e81a1df	0.2531881
6	0x3ee0fad0	0.43941355
7	0xbf740a2b	-0.95328015
8	0xc052a268	-3.2911625
9	0xc0d2065f	-6.5632777
10	0x3f03ad1a	0.5143601
11	0x3f339e1c	0.7016313
12	0xbfff0eb0	-1.9926357
13	0x3f0fd168	0.56178904
14	0xc0453e02	-3.0819097
15	0x3eb18f3e	0.34679598
16	0xc09bdfd6	-4.8710737
17	0xbff27c3a	-1.8944161
18	0xbd058429	-0.03259674
19	0x3fbc04e9	1.4688998
20	0xbfd23e21	-1.642521
21	0xc00b03a5	-2.1720974
22	0xbdeaae83	-0.11459067
23	0x3dbdfa95	0.0927631
24	0x3e486c9f	0.19572686
25	0xbf997846	-1.198983
26	0xc0721c31	-3.7829707
27	0xc0b137ad	-5.5380464
28	0xc02615ed	-2.5950882
29	0xbf62aef6	-0.8854822
30	0x40091283	2.1417549
31	0xbf1b0606	-0.60556066
32	0xbf8da744	-1.106667
33	0x3f944c6b	1.1585821
34	0xbf0d3f87	-0.5517506
35	0x3e79650a	0.2435495
36	0xbf07d780	-0.530632
37	0x3eac657d	0.3367118
38	0xc0a7c287	-5.242496
39	0xc084dc5b	-4.151899
40	0xbf3088bc	-0.6895864
41	0xc021a48a	-2.5256677
42	0x4063a498	3.556921
43	0xbe75a9c0	-0.23990536
44	0xbec79ec2	-0.3898831
45	0xbfeafb94	-1.8358026
46	0xbfcd4baf	-1.6038722
47	0x3eb270ce	0.34851688
48	0xc063096b	-3.5474498
49	0xc0f020ba	-7.503995
50	0xc0ea2c6b	-7.317922
51	0xbe5bb578	-0.21455944
52	0xbfd2de21	-1.6474038
53	0x3f5b1ebd	0.8559378
54	0x3e5f7691	0.21822573
55	0x3e8b2327	0.27175257
56	0xbfbb0fb0	-1.4614162
57	0xc01cc2a9	-2.449381
58	0x3fa91e45	1.3212363
59	0xbfe8116e	-1.8130319
60	0x3fe2eba1	1.7728158
61	0xc00f5782	-2.239716
62	0xbf640592	-0.89071
63	0xc04235ac	-3.0345259
64	0xc0a92fd5	-5.287089
65	0xbf96b222	-1.1773112
66	0xc0a1f14c	-5.060705
67	0xc087ac5a	-4.239789
68	0xbf2a5e78	-0.665504
69	0x3f1e15d2	0.61752045
70	0x3fb08877	1.3791646
71	0xbfb89153	-1.441935
72	0xc08bcf2e	-4.3690405
73	0x3fb28d76	1.394942
74	0xbfbcf4c7	-1.47622
75	0xbf959c50	-1.1688328
76	0x3ec9bbbf	0.3940105
77	0x3deadde4	0.114681035
78	0xbff6692d	-1.9250847
79	0xc0605370	-3.5050926
80	0xbfcd0c35	-1.601935
81	0x3e190f68	0.14947283
82	0xc02435b3	-2.5657775
83	0xbff1e139	-1.8896858
84	0xbfd68c47	-1.6761559
85	0x3fa2ccdc	1.2718768
86	0xbfafc719	-1.3732635
87	0xbff5ece5	-1.921292
88	0x3c57eb89	0.013178715
89	0xc031d69d	-2.778724
90	0xbfb255c2	-1.3932421
91	0xbebbe631	-0.3669906
92	0xc01d6f44	-2.459916
93	0x3e237cff	0.15965651
94	0x3f8a34cb	1.0797361
95	0xc0ac0164	-5.3751698
96	0xc091ea2b	-4.559835
97	0xbffb57f7	-1.963622
98	0x3f86c6d0	1.0529423
99	0x3e622091	0.22082736
100	0x3ddc7146	0.10763793
101	0x3dbdf310	0.09274876
102	0xc09d9874	-4.92486
103	0xbf6c38de	-0.9227427
104	0x3f3e1cc1	0.74262625
105	0x3d84bd1e	0.06481384
106	0x3f30cb63	0.69060344
107	0xbe300f26	-0.17193279
108	0x3f37cd31	0.7179747
109	0xc0721222	-3.7823567
110	0xc03d1fb2	-2.9550595
111	0xbf87bfd1	-1.0605413
112	0xbf9d813e	-1.2305067
113	0xc033cbd7	-2.8093164
114	0x3f2c3004	0.67260766
115	0x3d6cf9ec	0.05785553
116	0xbe87784b	-0.26458964
117	0xbe9d11ea	-0.3067773
118	0xbf9b1985	-1.2117163
119	0xc0841ce4	-4.1285267
120	0xbeb13360	-0.3460951
121	0xbf7309ad	-0.9493664
122	0x3f56af92	0.8386165
123	0xc06386ba	-3.555098
124	0x3f06a580	0.5259628
125	0x3f07ceaa	0.5304972
126	0xc056b190	-3.3545876
127	0xc089c92a	-4.305806
128	0xc04c7fdd	-3.1953042
129	0x3f66cb69	0.9015413
130	0xc034815c	-2.8203955
131	0x3ed47f82	0.4150353
132	0xc00ac8bd	-2.168502
133	0x3e804a66	0.25056762
134	0xbe3ac970	-0.18240905
135	0xbfa7e9bd	-1.3118206
136	0xbff74b76	-1.9319904
137	0xc0e364d6	-7.106059
138	0x3f301816	0.6878675
139	0xbf72a2ee	-0.9477986
140	0xbf2ba539	-0.67048985
141	0xbed3bb44	-0.4135381
142	0x3f6398ad	0.8890484
143	0xbf5730b3	-0.84058684
144	0xbf5c5646	-0.8606914
145	0xc05cefc5	-3.4521344
146	0x3fb34a53	1.4007057
147	0xc0ca5b2a	-6.3236284
148	0xbf5c7c2b	-0.86126965
149	0x3f40ee93	0.75364035
150	0xbf4f3fe2	-0.8095685
151	0xbf59b702	-0.8504487
152	0x3e6cbc3e	0.23118684
153	0xc1438992	-12.2210865
154	0x3fbe2b37	1.4856938
155	0xbf71e6bb	-0.9449269
156	0xbffc9f17	-1.973605
157	0xc00e8cec	-2.2273512
158	0x3fb5e4f7	1.42105
159	0x3fe318e2	1.7741969
160	0x3da6b8f2	0.08140744
161	0xbfb9190f	-1.4460772
162	0x3e625ae2	0.22104982
163	0xbf676ba2	-0.9039861
164	0xbe923f4b	-0.28563914
165	0x3ed3fdfb	0.4140471
166	0xc07c3c9f	-3.9412
167	0x3e25d0bc	0.16192907
168	0x3e877ea4	0.26463807
169	0xbd1d8f51	-0.038466755
170	0xbe8b772b	-0.27239355
171	0xbf04dbbc	-0.5189779
172	0xbdee9535	-0.11649553
173	0xbfb69d50	-1.4266758
174	0x3eebc13d	0.46045867
175	0xbe8067df	-0.25079247
176	0xbc6f5026	-0.014606511
177	0x3e0fe512	0.14052227
178	0xbeff360e	-0.49845928
179	0xbdacb794	-0.08433452
180	0xbede8548	-0.4346106
181	0xc00c2f51	-2.190388
182	0x3ead41a7	0.3383915
183	0x3e7872e2	0.24262574
184	0x3f332788	0.69982195
185	0x3fce743e	1.6129224
186	0xc09bcceb	-4.8687644
187	0x3f8b9a93	1.0906547
188	0xbf8c4289	-1.0957805
189	0xc028b99a	-2.6363282
190	0xc0765b9d	-3.8493416
191	0xbfa6bf9f	-1.3027228
192	0x3f20d74e	0.6282853
193	0xbf863f94	-1.0488153
194	0xbe297ad0	-0.16550756
195	0xbf6e6d69	-0.93135697
196	0xbf9c21a3	-1.2197765
197	0x3e6ee79c	0.2333054
198	0xc0630e8b	-3.5477626
199	0x3ef01ed2	0.46898514
200	0xc0a2efc5	-5.0917687
201	0x3f881a47	1.0633019
202	0xbf5a6e5c	-0.85324645
203	0x3fab587e	1.3386381
204	0x3f38d1cd	0.7219513
205	0xc05964e6	-3.3967834
206	0xc03a6aac	-2.9127607
207	0xc004bb96	-2.0739493
208	0xc0223fee	-2.535152
209	0xc08fefea	-4.4980364
210	0xbf778d67	-0.9670014
211	0x3f988fd7	1.1918896
212	0xbf5b7cb4	-0.85737157
213	0xbfdd992b	-1.7312368
214	0xc090ed9a	-4.529004
215	0x3f8ba4ee	1.0909708
216	0xbeec8ced	-0.46201268
217	0x3feb295a	1.8371994
218	0xc0c4027c	-6.1253033
219	0xbd3dcdc0	-0.046338797
220	0xbf5ce768	-0.862906
221	0xbec15f4a	-0.37768012
222	0xbf9f44e4	-1.2442899
223	0xc07e9483	-3.9778144
224	0xc0b8ca7c	-5.7747173
225	0xc03cfc12	-2.9528852
226	0xbf8a98ff	-1.0827941
227	0x3f9fdfdc	1.2490191
228	0xbe8e4f0a	-0.27794677
229	0xbff19046	-1.8872154
230	0x3f8af049	1.0854579
231	0xc094d4f5	-4.6509957
232	0xbfac3dcb	-1.3456358
233	0xc0993e88	-4.788883
234	0xbf8c7a2d	-1.0974785
235	0x3ff422f8	1.9073172
236	0xc0ae3b54	-5.444742
237	0x3b882a7e	0.004155456
238	0xbf805086	-1.0024574
239	0x3e54f53e	0.20796677

l3.bias f4 [30]
0	0xbf2400c0	-0.64063644
1	0xbfb69224	-1.4263349
2	0xbe5589eb	-0.20853393
3	0xbf717d1f	-0.94331545
4	0x3ea09c8a	0.3136943
5	0xc023d9a6	-2.5601592
6	0x3e9ff29d	0.31239787
7	0xbe4a19fa	-0.19736472
8	0x3f4b9d98	0.79537344
9	0x3c88bd22	0.016691748
10	0xbf2ff75a	-0.68736804
11	0xbfda446a	-1.7052128
12	0xbe85fb70	-0.26168394
13	0xbe5e17f6	-0.21688828
14	0xbfa8f99f	-1.3201178
15	0xbc34b408	-0.011029251
16	0xc007a57c	-2.1194754
17	0xbfd162e0	-1.6358299
18	0xbf688006	-0.9082035
19	0x3f9935d4	1.1969552
20	0x3eadf5f2	0.33976704
21	0x3dd2a121	0.10284639
22	0x3d1b886a	0.03797189
23	0xbf1b0654	-0.6055653
24	0x3dd08eec	0.1018351
25	0x3f08f69d	0.535013
26	0x3ec0fd1e	0.37693113
27	0xbfa5e505	-1.2960516
28	0x3f2aa4e4	0.66657853
29	0xbf86ac32	-1.05213
